motion_model.tflite (tflite, 343956 bytes, 6 tensors)

arith.constant f4 [4, 64]
00000000: 2fa6 093e 28e4 563e 82c7 803e dace 8b3e
00000010: 1d2f 68bd 2f60 1c3e 333e aabe f650 813e
00000020: d967 a93d 5dac 28be 1e1d 37be 5e45 463d
00000030: f170 ad3d 4a99 433e d251 beba 4209 9bbe
00000040: 2886 8b3e 8d97 a6be fe1d 863d a348 d53d
00000050: f276 b8bd b4f0 4ebe d148 363e dcf1 c5bd
00000060: ee27 aebe cbf6 1f3e d296 6ebd 6632 ab3c
00000070: 801c f6bd 6b5a 043e c6de cb3b 80d0 723e
00000080: 37c3 3bbe 087b 08be cad7 353e d6ec 4d3e
00000090: 2265 93be 64aa 65bb 1cd1 583e bfb1 95be
000000a0: 3329 013e dbc0 b2be f3b1 73be 309c 143e
000000b0: 876a 65bc 6d5c 993d ba3c 06be f1bd 1f3e
000000c0: 3dd0 3cbe 82e7 b4be c872 5ebd 8836 583e
000000d0: 3547 793e 5d9e 21bc 725a 813e f2dd 953d
000000e0: 1f1f 67be 1256 b43e dbf6 ac3d 13f9 b8be
000000f0: 43fe d83d d8b6 87be 655f 163e 7000 b03e
00000100: 916e 91be 9e1a 6dbe c4e1 593d cf50 853e
00000110: 3f7b 77be e4b7 213d 9417 953e b6fc a73d
00000120: ee4e 013d 051e ec3c ceda 163e 0056 8e3e
00000130: a4c0 983e e8f9 8c3e d157 81bd e3a3 66be
00000140: 333c 8d3e 8a05 1ebd d0f7 bebe 1722 413e
00000150: d176 bfbc 307b 7f3d 7db9 443e 3b7c 573e
00000160: 5b0a 94be 9d46 efbd 6efe 3e3e 98e2 34be
00000170: d1ec 71bd 8ef5 91bd 3d0d 65be 9d98 b63d
00000180: f522 a53d f65c 943e 8708 5fbc 07e2 21be
00000190: e0b6 063e d346 ffbd 7cb3 3ebe 3138 2b3e
000001a0: 3e0e 663e 2478 3bbc 9b3d a53d 1a98 c63d
000001b0: 255a a73e 825a 153e 97b6 94be e337 693e
000001c0: d71a f53d b639 66be 8a83 7dbc 55fd 7ebe
000001d0: a239 5c3e 9126 18be c8d4 5e3e a53b 483d
000001e0: d6c6 363e 5706 90bd 2cab 8a3d 2659 acbe
000001f0: 39f1 a73d a93f 183e 3776 163e 7fd9 2b3e
00000200: 8e39 e03b 8509 2f3d cb5a bd3b a2ad 873d
00000210: 2b96 8f3e 7f0b 3ebe e242 97be 367d cebd
00000220: 83e7 d63d cc2d 6f3e de08 24be ae4b cc3d
00000230: 3268 56be a289 98bd 9a52 8c3e f4b2 07be
00000240: bb49 4b3e 53c0 8c3d e102 80be 7738 b3bd
00000250: f99a 263e f7ec ad3d 1e9e 943d b72e 8fbe
00000260: 0777 2d3b a417 77be 1026 b0bd c328 32be
00000270: 6b99 aa3e 1d48 15be d01f 95be bbfb 3bbe
00000280: 9da8 e33d b225 2b3e 6fdc b23d a375 1b3e
00000290: cc35 1e3d 66e6 f93d bbf0 43bc e2c1 87be
000002a0: 9065 d03c 640d d2bd a4f3 b93d 1305 903d
000002b0: 75f0 a0be e811 78be 9dc7 e73c 9307 683c
000002c0: a874 d83d 4b42 a13c 1b2b a0be 70e7 f53d
000002d0: d89f 81bd 53ad e83d 178c f8bd 7ee8 fbbd
000002e0: f1a9 963e 4024 7d3e 9df6 bcbb b183 893e
000002f0: d989 3ebe e043 bd3d d563 823e 4a5d 7bbe
00000300: db86 803e acf7 c7bd e183 43be fd63 403e
00000310: b2c6 c3b9 2ed5 53bd b898 063e 162e 8fbe
00000320: 5136 b33c eac8 e5bd d4db ea3d 2f6c 963e
00000330: 08b2 953e 8e05 e6bd af06 91be 247d 693e
00000340: d8cc 0dbe 6b5d 81be c87c 813e b353 023e
00000350: 6c6f 5fbe c1b2 12be 636c 9dbe a832 e53d
00000360: 0e67 263e 0352 35be 61aa 94be 7955 67be
00000370: 718b 0e3c 6ff0 4cbe d248 6abe b49c b6bd
00000380: 0807 a7bd 15aa 943d 4517 783d e6c8 47be
00000390: 85c5 8b3e d91a 5a3e 7f47 8bbe 4ba6 66bc
000003a0: 8221 26be 7bb0 70bd a90c 3e3e fa7d 31be
000003b0: 5512 593e 515c a8bd 2c18 edbd 05c3 bd3d
000003c0: f0a3 bdbd 0b48 903e 2535 71bc 2d58 163e
000003d0: 9e29 1b3d 6988 403c e9a9 8c3e 080b 693e
000003e0: 6a20 4abe be43 06be 23a3 8bbe b9d7 8d3e
000003f0: 8ddb 21be d9a2 893e ad07 003e 89a8 5dbd
0.134423 0.20985472 0.25152212 0.27306253 -0.056685556 0.15271066 -0.3325058 0.2525708
0.082717605 -0.16472001 -0.17882201 0.048405997 0.084688075 0.19101444 -0.0014520234 -0.302805
0.2725079 -0.325375 0.06548689 0.10414245 -0.09007062 -0.20209008 0.17801215 -0.09665272
-0.3401484 0.15621488 -0.058249302 0.020898055 -0.12017155 0.12925117 0.006221625 0.23712349
-0.18336187 -0.13328183 0.17758098 0.20109877 -0.28788096 -0.0035044188 0.21173519 -0.29237172
0.12613373 -0.34912762 -0.23798351 0.14512706 -0.014002449 0.07488332 -0.13109103 0.155998
-0.18438812 -0.35332876 -0.054308683 0.21114552 0.2434357 -0.009864417 0.25264317 0.07317723
-0.22570466 0.35221916 0.084455214 -0.3612753 0.105953716 -0.26506686 0.14684828 0.34375334
-0.28404668 -0.23154685 0.053193823 0.26038215 -0.24168108 0.039482012 0.2911955 0.08202498
0.031569414 0.028822908 0.14731905 0.27799988 0.29834473 0.27534413 -0.06315578 -0.22523455
0.2758499 -0.0385795 -0.3729844 0.1886066 -0.023372086 0.06237334 0.19211383 0.21043484
-0.2891415 -0.1168339 0.18651745 -0.17664564 -0.059063736 -0.07126914 -0.22368331 0.089158274
0.08063308 0.28977174 -0.013612873 -0.15808879 0.13155699 -0.124646805 -0.18623155 0.16720654
0.2246637 -0.011442218 0.08068391 0.0969698 0.32685962 0.14585307 -0.29045555 0.22775225
0.1196801 -0.22482952 -0.015473256 -0.24901326 0.2150636 -0.14858462 0.21760857 0.048885006
0.17849287 -0.07032459 0.0677093 -0.33661765 0.082003064 0.14868034 0.14693533 0.16782187
0.0068427986 0.042733688 0.0057786456 0.06624915 0.28044257 -0.18559073 -0.29543215 -0.10082476
0.10493376 0.23357314 -0.16019008 0.09975372 -0.20938185 -0.074481264 0.2740677 -0.13251859
0.19852345 0.068726204 -0.25002196 -0.08751004 0.16270055 0.08492463 0.07256721 -0.27965328
0.002646865 -0.24130112 -0.0860101 -0.17398362 0.33320174 -0.1457829 -0.29125834 -0.18357746
0.11116145 0.16713598 0.087334506 0.15181594 0.038625523 0.12202148 -0.01195925 -0.26515108
0.025439054 -0.1025646 0.09079674 0.07032218 -0.31433454 -0.2422558 0.028293425 0.014161962
0.105691254 0.019684931 -0.31282887 0.12007034 -0.06329316 0.11361184 -0.12136095 -0.12300204
0.2942653 0.2472086 -0.0057667033 0.26858285 -0.18607272 0.09241462 0.2546679 -0.24547306
0.25102887 -0.097640365 -0.19093277 0.18788143 -0.00037341338 -0.051716976 0.13144195 -0.27964848
0.021876486 -0.11219962 0.1146771 0.29379413 0.2923739 -0.11231528 -0.28325412 0.22801644
-0.13847673 -0.25266585 0.25290513 0.12727241 -0.21819848 -0.14326002 -0.30746755 0.111913025
0.1625025 -0.17707066 -0.2903624 -0.22591199 0.008700238 -0.20013593 -0.22879341 -0.089166075
-0.08155638 0.07259003 0.060569067 -0.1951023 0.27299133 0.21299304 -0.27202985 -0.014077733
-0.1622372 -0.058762055 0.18559517 -0.17333212 0.211984 -0.08220733 -0.11576876 0.09265713
-0.09259784 0.28179964 -0.014722143 0.14682074 0.037881486 0.011751273 0.2747338 0.22758114
-0.19738927 -0.13111779 -0.272729 0.27703646 -0.15806408 0.26882055 0.12502928 -0.054115806

arith.constant1 f4 [64, 128]
00000000: e3b5 133e f3fd cb3d 10aa 0b3e e453 22be
00000010: 8706 0abd 2c20 6bbd ff6e 803d d6bd 493e
00000020: 3eda 16be 4884 db3d 88ce fe3c 833a 063e
00000030: 3f9b 313e 6408 20be 795b 543d 0814 013d
00000040: 7d8c 8d3d a3d6 083e d382 71bd 95e8 d13b
00000050: c3b9 a63d 8505 313c 5194 2fbd 8b1d 023e
00000060: bffb 0dbe b0af 0dbe c91a de3d 60a7 42bb
00000070: 2bcd 9c3c 5f85 393b b5c0 08be 9488 fcbc
00000080: 1ce3 123e 759a 023e c72c 323e c81b a9bc
00000090: 8f92 febd 2668 163d 5a77 983d 25cf bf3c
000000a0: 2a0b 43bd 15bd 743d 5dc3 2f3e 31ce dcbd
000000b0: f9d1 ad3d 0702 07be 6655 e8bd 5d62 1d3d
000000c0: 4a98 913e ab89 1a3d c898 573e e9a7 81bd
000000d0: 35f2 273e 81f8 85bd 1d07 dabc 13fc 303d
000000e0: c845 953c 8299 0e3e 6189 093e 709c 293d
000000f0: ce02 bb3c 4336 36be 408c 413e 2043 babd
00000100: 0b4e 9b3d cc68 35be c179 093e 3d23 ec3b
00000110: a915 263e a8f2 1dbe 7514 043d 712e 243e
00000120: 11e5 3c3c 65e6 ed3d 2759 bfbd ef5f 5cbd
00000130: 02fb 0e3d 5389 ec3c 4e88 aa3d fb28 26be
00000140: 5b24 a4ba e4e1 1c3e 4e4b 393e 872e f43d
00000150: cf92 053e 4e5d 003e c2ee a73d 8086 12be
00000160: 85c0 0e3e f954 3439 0168 3c3e 0278 153c
00000170: 2018 c8bb 28f7 cb3d 18ba 68bc ad05 28bd
00000180: 7510 0cbe 7bed 14bd 72f4 343d b689 e5bd
00000190: 9b99 b23d 8a47 92bd 8b1b 39bc 5d3c 573c
000001a0: d86b 2b3e 4e61 013e c03f 0bbe b90a b93d
000001b0: bf49 01be 0f36 1ebe ebdc 2cbe a6a8 2bbd
000001c0: b497 1d3d bdbb 913d daf7 afbd cad2 e23d
000001d0: 6abc a3bc 606b 683d 53a3 523c 8bc6 aebd
000001e0: 89cf 6a3e 568c ee3c 4d51 a0bd 8004 e9bc
000001f0: b19f 05be 0029 b8bd 16a3 493d e29c 0a3d
00000200: e592 453d c512 f2bd fd91 ffbd ad01 1cbe
00000210: 4edc 9dbc 90c4 0b3c 6921 1ebd a8be 0b3e
00000220: e912 bcbd 30d7 833d b0cd d03d f571 063e
00000230: d8d0 e0bd d73d 0b3e 8a0e b9bd 9371 d6bd
00000240: db12 213e 087d d1bc e063 19be 31fd ff3c
00000250: c900 923d 781d 2fbd f7f0 cd3d 5b9f cabd
00000260: e4fa ba3c ff0e 673e 2bda cc3d ee1a 94bd
00000270: 2585 bbbd dfe2 18be 5b7a 29be 4506 9dbd
00000280: 606e fb3d 7555 9ebc 2c2b 8e3d d4c9 a03d
00000290: 1619 c4bb 60cd e13d c8b7 c9bd 491e a23d
000002a0: 7dbe 32bd d78e 0bbd ab14 ee3d 19f4 65bd
000002b0: 2bd9 983d f8db 37be 7926 0abe 3a79 22be
000002c0: 0f71 fdbd 7252 033e b87c 0c3e 9f94 1a3e
000002d0: e004 04be aea6 93bd db76 3d3c 2245 233e
000002e0: 91eb 3ebd cf2b 93bc 64ef fbbc 9f50 8dbd
000002f0: 10d1 ba3d bcdc adbd 73e1 5abd a608 47bd
00000300: b36b 2a3d afa3 0bbe 87ff 0b3e 5eb1 bfbd
00000310: 45c6 f63b 863a 173d de7d a33d 245b 903a
00000320: afb5 aa3c 0c94 35be 7aa5 81bd 76b9 b63c
00000330: fbf1 853c 7ee9 08bd 737d a33d 69f4 ed3b
00000340: 51c9 bbbd 3dbf d43d 4d83 873b 49cb f63c
00000350: 5454 c13b b8ef 2bbb c79f e0bd eceb 85bd
00000360: 99f2 763d b053 f8bd 81e2 12be 0d7b f5bb
00000370: 1263 74bc 8935 2fbe 06bc fa3c 1554 42bc
00000380: fa64 b3bc aaeb 793d eb56 2c3d 0eb5 cfbd
00000390: f529 303d eb81 e43d 5d15 22be 1a35 0f3e
000003a0: 65e0 adbd 5064 083e 83cf 153d 9885 143c
000003b0: 3a83 33be 283b 403d e437 103e aed1 033e
000003c0: 9a7f 193e b31b 3dbe e18e 683d ae31 bebc
000003d0: c570 863d a629 0cbe c2eb 963d 8bda 13bd
000003e0: ea9c acbd 0c39 763b 94cf e6bd d5ff 9bbd
000003f0: 8780 d0bd fb52 7abd 47f6 bcbd 9181 8f3d
0.14424853 0.09960546 0.13639092 -0.15852314 -0.03369763 -0.05740373 0.06271171 0.19701323
-0.1473169 0.1071859 0.031104341 0.13108258 0.17344378 -0.15628201 0.051845048 0.031513244
0.06911562 0.13363127 -0.058962654 0.0064058998 0.081409 0.010804539 -0.042866055 0.12706582
-0.13865565 -0.1383655 0.108449526 -0.0029701814 0.0191408 0.0028308255 -0.13354762 -0.030826844
0.14344448 0.12754233 0.17399894 -0.02064313 -0.124302976 0.036720417 0.074446395 0.023414204
-0.04761807 0.059750635 0.17164369 -0.107815154 0.08487315 -0.13184367 -0.113444135 0.038423885
0.284365 0.037728947 0.21054375 -0.063308544 0.16400988 -0.06541539 -0.02661472 0.043209147
0.01822175 0.13925746 0.13431312 0.041408956 0.022828486 -0.17794137 0.18901157 -0.09094834
0.07583245 -0.17715758 0.13425352 0.007206349 0.162192 -0.15424597 0.03224607 0.16033341
0.011529223 0.1161621 -0.09343176 -0.053802427 0.03490735 0.028874075 0.08326779 -0.1622657
-0.0012523042 0.15320545 0.18095133 0.11922937 0.13044284 0.12535593 0.08199836 -0.1430912
0.13940628 0.00017197792 0.1839905 0.00912285 -0.0061063915 0.09959251 -0.014204524 -0.041021038
-0.13678153 -0.03635929 0.044178434 -0.11207907 0.08720704 -0.07142551 -0.011298071 0.01313695
0.16740358 0.12634775 -0.13598537 0.09035248 -0.12625788 -0.15450309 -0.16881149 -0.041908883
0.038474753 0.07115886 -0.08592196 0.11075361 -0.019987304 0.056743026 0.012856322 -0.08533963
0.22930731 0.029119652 -0.07828007 -0.028444529 -0.13049199 -0.08992195 0.049227796 0.03384102
0.048235793 -0.11819986 -0.12479017 -0.15235014 -0.019270089 0.008530751 -0.03860608 0.13646948
-0.09183294 0.06437528 0.10195482 0.13129409 -0.10977334 0.13597809 -0.09035976 -0.10470881
0.15729849 -0.025572315 -0.14979506 0.03124866 0.07129056 -0.042752713 0.10055726 -0.09893676
0.022824712 0.22564314 0.1000255 -0.07231699 -0.09156255 -0.14930294 -0.16550581 -0.076672114
0.12276912 -0.019327858 0.06941828 0.07850996 -0.005984436 0.110255 -0.098495066 0.07915933
-0.043638695 -0.03407177 0.11625036 -0.056140993 0.074632965 -0.17955005 -0.13491239 -0.15866557
-0.1237508 0.12824419 0.13719451 0.15095757 -0.12892485 -0.07209526 0.011563982 0.15944341
-0.046611372 -0.017965226 -0.030753799 -0.06900143 0.09121907 -0.08489367 -0.05343766 -0.048592232
0.041606616 -0.13636659 0.13671695 -0.09360002 0.00753096 0.036921047 0.07982992 0.001101349
0.020838587 -0.17732257 -0.0633039 0.022305232 0.016350737 -0.0334258 0.07982912 0.007261802
-0.091692574 0.10388038 0.0041355253 0.03012623 0.0058999453 -0.0026235413 -0.10967975 -0.06539139
0.060289953 -0.12125337 -0.14344217 -0.0074914754 -0.014916198 -0.17110266 0.030607235 -0.011860867
-0.021898735 0.061015762 0.04207508 -0.10141955 0.043008763 0.111575924 -0.15828462 0.139851
-0.084900655 0.13319516 0.03657485 0.009065054 -0.17530528 0.046931416 0.1408382 0.12872955
0.14990082 -0.18467598 0.056776885 -0.023217048 0.06564478 -0.13687763 0.07369186 -0.03609709
-0.084283665 0.0037570624 -0.11270061 -0.076171555 -0.10180765 -0.061114293 -0.09226661 0.07007135

sequential_3_1/dense_10_1/BiasAdd/ReadVariableOp f4 [64]
00000000: a1ba 14bc 48c2 81bc 58f9 ca3c fea8 1abc
00000010: a9f1 ad3b 33ec debc 2e40 bc3c e6a4 8abc
00000020: bf28 aabc 65dd 46bc f811 19bc 5fad a4bb
00000030: 85f9 de3b 313e 0cbc b496 5ebc 9437 84bc
00000040: 5de1 683c 0074 02bc 77a4 f03b 647d e9bb
00000050: e053 d8bb 0aef 543c 794e 923c 3209 8fbb
00000060: 7c90 a0ba 7434 ddbc 90a8 a9bb 87d1 e3bc
00000070: d1ce fd3b 401a fbbb d82f cf3c 5339 7fbc
00000080: 3230 89bc 54e3 383c 1326 89bc 39fd 823b
00000090: 7957 473c 71bb 23bb 702c debc abfb e93b
000000a0: e875 b5bc 5584 aabb befc 62ba ed93 923c
000000b0: 5726 c23b 0a5d ab3b 4578 3d3b 5ccd f7bb
000000c0: 830a d2bb ff38 9b3c 5d15 dc3b 6b31 70bb
000000d0: 953e 7b3c 3983 93ba 09ea 503c dd98 903b
000000e0: d9cc 19bc 5442 ab3c 4ee9 08bc 11da 98bb
000000f0: 8b3b 78bc 9cc0 253c 82c1 013c bbef ca3c
-0.009077699 -0.01583971 0.0247771 -0.009439705 0.005308349 -0.027212238 0.022979822 -0.016924333
-0.020771382 -0.0121377455 -0.009342663 -0.0050255503 0.0068046474 -0.008559749 -0.013585735 -0.016139783
0.014213887 -0.007962227 0.0073438245 -0.0071255434 -0.0066017956 0.0129964445 0.017859684 -0.00436511
-0.0012250091 -0.02700255 -0.005177565 -0.027809871 0.0077456017 -0.0076630414 0.025291368 -0.015577632
-0.016746614 0.011284668 -0.016741788 0.0039974716 0.012166851 -0.002498355 -0.027120799 0.007140597
-0.022150949 -0.0052037635 -0.00086588773 0.017892802 0.0059249806 0.005229597 0.0028910798 -0.0075623225
-0.0064099445 0.018948076 0.006716414 -0.003665055 0.015334745 -0.0011254317 0.012751111 0.004412754
-0.009387218 0.020905651 -0.008356405 -0.0046646674 -0.015150915 0.010116722 0.007919671 0.024772516

sequential_3_1/dense_11_1/BiasAdd/ReadVariableOp f4 [4]
00000000: c0d8 4d3c 9875 81bc 6cd3 883b 5d9c c0bc
0.012563884 -0.015803143 0.004175594 -0.02351206

sequential_3_1/dense_9_1/BiasAdd/ReadVariableOp f4 [128]
00000000: 9167 3fbc 7feb b6bb 0762 113c 3c92 99bc
00000010: b26c a23a 960b cbbc fed3 8bbb 3299 383b
00000020: c56d 813a b6b6 6739 1a90 893c e379 6ebc
00000030: 9355 28ba 3c67 a2bb 2ab9 d7bb faf1 a23c
00000040: 5b4a 1ebc a6d9 56bc e176 2b3c 7fa5 893b
00000050: f95c 2fbb 2f21 12b9 1813 1fbb 831f 22b9
00000060: 3893 283c 3174 b13c e978 e73b e1b9 a73c
00000070: e46d 983c c9b2 4cbb 03ba 283c 882d 053b
00000080: 321f 273a cb95 88bb 1e10 14bc 2817 303c
00000090: 6d55 c1bb 880a 2d3c 1e54 8e3a 7f1c 203c
000000a0: 444f 12bb ec82 15b9 4ca2 9f3b cd8c 97bb
000000b0: 53e6 3fbc a721 1dbc f5a0 113b e751 913c
000000c0: 422c f3ba f4b1 b03b aaeb a338 a850 923a
000000d0: d5aa e6bb 2cea a63b 335a 99bb bf94 5fbb
000000e0: eb6d 33bb 864f 703c 08af 0f3c 26de 3eb9
000000f0: 94e6 433c 0d77 e33c 3b80 e93c 7dc0 da3c
00000100: e872 93bc 79bc b73c bab2 90bc 70b0 69bc
00000110: 6e28 aeba 9f06 73bc 07aa 0fba 6277 54bb
00000120: b078 fc3b 46c1 cebb 61c0 5a3c edd2 fc3a
00000130: 6e00 76ba 2bcb 3ebb da3d 983a b418 033d
00000140: c7f1 fbbb 5667 48b9 cb85 bb3a b901 203b
00000150: 2488 353c 1ead 2ebc e738 56bb a0c7 7f3a
00000160: 69e0 01bb 07ac 3e3a 3d9a 46bc d8d9 0a3c
00000170: b0ce f73b a33b 073b 6476 873c 1ac1 cb3c
00000180: e502 abbb ba03 04bc 911d af3b f7bc c4ba
00000190: 2a0a c03b 2fb4 8ebb 899d 573c 6e6b 85bb
000001a0: 74b0 3b3c e9a0 fc3b d953 2c3c 5426 033c
000001b0: 2bd2 d13b 4237 1c3c e35c 29ba ad93 173c
000001c0: a60d 113d bb68 ecbb 7600 3db9 0396 fc3b
000001d0: e378 f939 8656 77bb 272c 6439 91b0 d53b
000001e0: fc2e d83b 01c1 963c d907 923b 16c4 d43c
000001f0: 77bc c33b 7be5 4cbc 81a6 f03c 8cfe 873c
-0.011682407 -0.0055822725 0.008873469 -0.018746488 0.0012392013 -0.024785798 -0.004267215 0.0028167483
0.0009874633 0.00022097942 0.016792346 -0.014555427 -0.0006421443 -0.004956154 -0.0065833526 0.019890774
-0.009661282 -0.013113415 0.010465355 0.004200637 -0.0026758297 -0.00013936007 -0.0024272855 -0.00015461263
0.010289006 0.02166185 0.007063974 0.020474376 0.018607087 -0.0031234494 0.010298255 0.0020321328
0.0006375193 -0.0041682473 -0.009037046 0.010747708 -0.005900076 0.010561593 0.0010858809 0.009772419
-0.0022325078 -0.0001425852 0.004871642 -0.004624939 -0.011712628 -0.009590543 0.0022221182 0.01773925
-0.0018552619 0.0053923074 7.8163415e-05 0.0011162953 -0.0070394077 0.0050938334 -0.004679942 -0.003411576
-0.0027378749 0.014667397 0.008769758 -0.00018202569 0.01195683 0.027766729 0.028503528 0.026703114
-0.017999128 0.022428738 -0.017663348 -0.014263257 -0.0013287195 -0.014833122 -0.0005480353 -0.003241979
0.0077048168 -0.006309661 0.013351531 0.0019288935 -0.00093842193 -0.0029112797 0.0011615113 0.03200598
-0.007688734 -0.00019111982 0.0014306841 0.002441509 0.011079822 -0.010661392 -0.0032687725 0.00097572245
-0.0019817597 0.0007273559 -0.012121734 0.00847479 0.007562481 0.0020634911 0.016535945 0.024872351
-0.005218851 -0.008057529 0.0053441008 -0.0015009929 0.0058605867 -0.0043549757 0.013160118 -0.0040716445
0.011455644 0.0077096117 0.010518038 0.008004744 0.006403228 0.009534659 -0.00064606796 0.009251517
0.035413407 -0.0072146333 -0.00018024616 0.0077083125 0.0004758305 -0.003774078 0.00021760222 0.0065212925
0.006597398 0.018402578 0.004456502 0.025972407 0.0059733945 -0.012505884 0.02937627 0.01660087

sequential_3_1/dense_9_1/MatMul f4 [128, 600]
00000000: 916f 7abd 1955 143d e6e3 af3b a546 2ebd
00000010: 5c35 813d 2f40 a23d d4bd 263d b8c4 803d
00000020: b9e2 d03c 9ef2 a53d c60d f0bb 88f1 edbc
00000030: 7b0d 80ba 960f b03d 3658 b7bd 2410 f03c
00000040: 18c7 0f3d 9a79 42bd 2b05 99bd a1e9 cc3d
00000050: 55e0 503d 852c 693d fece 533d effe 3d3d
00000060: fb6a 36bd 5cca a13d a60c 933c fadf 553d
00000070: b0ff 1b3d 5768 963d 542b 0b3d a92e 95bd
00000080: e021 cebc 033a e83c b867 953d 2945 ba3b
00000090: 32dc cebc c4cd 05bd 23f6 1abd 2f8b 5c3d
000000a0: 67bf 993c 6fa6 b0bd 72d8 8dbd b048 903c
000000b0: fd51 7fbd d067 17bd bf7a 813c b014 393d
000000c0: 7e3b 21bc 2f3d 9dbd 5529 7cbd cef7 0fbd
000000d0: b460 d83c b874 ba3d 45c7 063d c964 63bd
000000e0: 2b7f b3bd 1d79 62bb 0af4 0f3d 8451 fd3b
000000f0: 31e1 4cbd af6f 65bd 5a8e 863d d87d 7cbd
00000100: b76e 283c 9f39 213d 3b1d 9ebd b964 acbb
00000110: 4eaf c6bd cd87 3fbd a05a b1bd b76f 4d3d
00000120: d5c0 18bd dbe6 3bbd dd65 523d 4411 9dbc
00000130: 08c1 4b3d d976 953d e31e b0bd b194 7fbd
00000140: 7ca8 71bd c51d 9e3d ea66 9bbd efd3 6d3d
00000150: 07b7 1dbd ae44 7c3d fa7a ca3a 0d41 d53c
00000160: 6a0c 9ebc 6c23 3ebd 5783 913d 5fbb c1bd
00000170: 0049 9ebd 5dda c5bb a2ac 82bc d0d8 063d
00000180: 01f9 babd a05d 113c 9d8a 7ebd 5084 d4bc
00000190: bd44 5e3d 9fc8 a93c ce6d 053d 01d0 ffb7
000001a0: 0005 283d 7fbd 943d 8aa5 67bb 6c0a 8ebd
000001b0: 842b 5fbb 2fa2 063d 71e4 b8bc 7e00 8abd
000001c0: e57b 93bd 779b e33c ff5c bebd 3e61 b3bd
000001d0: 2521 713c 7175 72bd 65dd 123d 90a9 8b3c
000001e0: 3e03 80bd 0e79 143c 33c8 14bd 2228 7f3c
000001f0: fbc7 9a3d b0c3 1cbd bfad 91bd 01e6 913d
00000200: e676 6a3d 0278 773d 966c 293d 66bb 95bd
00000210: ec3f d6bb e6bb 383d 6895 22bb c611 453d
00000220: d809 92bd 27ae 093d 402c 86bd 82ae 1ebb
00000230: d5ba 69bc 4a9c 953d 52c7 a13d a74e 7b3d
00000240: 8d60 9cbd 7125 bb3d b307 ef3b de7f fabc
00000250: 8c9c a43c 5d02 1fbd 7089 51bd 31df ecbc
00000260: 501b a53c 4e5c 59bd 279e d9ba bedf 773d
00000270: 7ea0 a3bc b431 b63d 4e7e 803d e0f2 9cbd
00000280: df28 89bc f345 323c 532b 65bd a30b a9bd
00000290: d898 023d 3c35 863d 8164 70bd 7f4a 64bd
000002a0: 5755 f33a 8f1a b63d 3143 82bd 2048 9fbd
000002b0: 84c2 e4bb 0249 833d c28a 7b3d 6498 4d3d
000002c0: a3ea e83b 5b74 60bd 75bf 873d 845b 953c
000002d0: 6d7b 5abd 6993 71bd bb4f b5bd cd86 10bd
000002e0: a280 adbc 586d 073d 3b25 21bd c207 573d
000002f0: 191c babd 855b 333d 70de 1abd 47fe 8cbc
00000300: d393 6a3d 8fa8 b3bd a954 28bd c58d be3c
00000310: f5e2 c1ba 6af4 963c fd20 94bd b381 a4bd
00000320: 6397 913c e396 a33d 8910 533d a29d a63d
00000330: d067 18bd 0e83 08bd 1d37 76bd 095f 603d
00000340: cb1e 72bd 47fe 99bd eeca 3fbd 0580 89bd
00000350: 6d28 79bd ff79 7dbd 15d6 c8bc 7e57 debc
00000360: 5e4c 19bd 0066 adbc 44cb 9e3d 557a 88bc
00000370: 36ef a7bb 66e0 1c3b 3e6a e33c 2d26 babd
00000380: 0830 8ebd c860 b53d dc59 a03d df09 babd
00000390: 0c7c 75bd f8c1 25bd e247 58bd 4fbb 7c3d
000003a0: e3e4 a33c 8e1b 583d 11a1 533c 3e3d 623d
000003b0: b3ff 703c 520e 87bd bf4b 89bd 0543 8ebd
000003c0: ace9 243c e84e 83bd 69f9 903c 4a95 9e3c
000003d0: d7cf 923d 7354 0d3d c4ca 933d cb13 a3bd
000003e0: c7ab 8cbd 5405 b83d a7cf 7fbb b111 12bd
000003f0: 2bbd 353d 2c30 c5bc e60c 303d b494 14bd
-0.061141554 0.036213968 0.005367744 -0.04254784 0.063090056 0.07922398 0.040708378 0.06287521
0.025498735 0.08102916 -0.0073258607 -0.029045835 -0.0009769642 0.08596723 -0.08952372 0.029304571
0.03510198 -0.04747925 -0.07471689 0.10005499 0.05099519 0.056927223 0.051711075 0.0463857
-0.04453562 0.07899925 0.017950367 0.052215554 0.03808564 0.0734412 0.033976868 -0.0728429
-0.025162637 0.028347975 0.072951734 0.005684514 -0.025251482 -0.032666937 -0.03783239 0.053843673
0.018768026 -0.08625495 -0.06926049 0.017612785 -0.06233405 -0.036964238 0.0158056 0.045185745
-0.009840844 -0.076776855 -0.061562855 -0.035148434 0.0264133 0.091042936 0.032904882 -0.055516038
-0.0876449 -0.0034557052 0.035144843 0.0077306647 -0.050019447 -0.056014713 0.0657012 -0.06164345
0.010280303 0.039361592 -0.07720419 -0.0052610305 -0.097014055 -0.04676037 -0.086598635 0.050155368
-0.037293274 -0.045874458 0.051366676 -0.019173272 0.049744636 0.07298059 -0.08599641 -0.062397663
-0.05899857 0.07720522 -0.07587989 0.058063444 -0.038504627 0.061588936 0.0015448027 0.026031995
-0.019293029 -0.0464205 0.07105129 -0.09459566 -0.077287674 -0.006037994 -0.015951458 0.032921612
-0.09129525 0.00887242 -0.06214391 -0.025941998 0.054264773 0.020725546 0.03257542 -3.0495228e-05
0.041020393 0.07262706 -0.0035346472 -0.069355816 -0.0034053037 0.032869514 -0.022569867 -0.06738375
-0.072013654 0.027784092 -0.09295081 -0.08758782 0.014717375 -0.059194032 0.03585567 0.017048627
-0.062506184 0.009062065 -0.036323737 0.015573533 0.075576745 -0.03827256 -0.071132176 0.07123948
0.057242297 0.060417183 0.04136332 -0.07311134 -0.006538382 0.04510107 -0.0024808291 0.048112653
-0.07130784 0.03361335 -0.06551409 -0.0024212901 -0.014265736 0.073052004 0.078993455 0.061354306
-0.07635603 0.09138001 0.007294619 -0.03057855 0.020094179 -0.038820613 -0.05115646 -0.02891502
0.020154625 -0.053066544 -0.0016602919 0.06051611 -0.01997399 0.08896199 0.06274091 -0.07663512
-0.016743122 0.010880935 -0.05594952 -0.08254173 0.031884044 0.065531224 -0.058689598 -0.055735108
0.0018564862 0.088917844 -0.06360472 -0.077774286 -0.006981196 0.064104095 0.061411627 0.05019416
0.007108049 -0.054798465 0.066283144 0.018232115 -0.053340364 -0.058978472 -0.08853098 -0.035284806
-0.021179501 0.033063263 -0.039342146 0.052497633 -0.090873905 0.04378845 -0.03780979 -0.017211093
0.057269882 -0.087723844 -0.041096363 0.02326096 -0.001479237 0.018427093 -0.072328545 -0.08032551
0.017772382 0.07987764 0.05152944 0.08135535 -0.03720838 -0.03332811 -0.060111154 0.054778133
-0.059111398 -0.07519203 -0.04682439 -0.06713871 -0.06082957 -0.061883923 -0.024516145 -0.027141329
-0.037426345 -0.021166801 0.077536136 -0.016659895 -0.0051249517 0.0023937463 0.027760621 -0.09089313
-0.06942755 0.0885635 0.07829639 -0.09083914 -0.059932753 -0.040468186 -0.052802928 0.06170207
0.020006603 0.052760653 0.012916819 0.055234186 0.014709401 -0.06594528 -0.067039005 -0.06946377
0.010065477 -0.064115345 0.017697053 0.019358296 0.071685486 0.034504365 0.07216409 -0.079627596
-0.068687014 0.08985391 -0.0039033683 -0.035661403 0.044369858 -0.024070822 0.04298105 -0.036274627
